data.pth (torch, 5079 bytes, 6 tensors)

l1.weight f4 [8, 54]
000000 60 d8 16 3f 36 a8 67 3e 1a a2 0d bf d0 fd e8 be
       0.5892391 0.22622761 -0.5532547 -0.45506144
000010 8e 5e 40 3e 91 66 a1 3e b1 02 59 be dd ae ce be
       0.1878607 0.31523564 -0.21192433 -0.40367785
000020 59 32 82 be a6 b9 ae be ed 03 cb be 37 60 9e be
       -0.25429037 -0.34126014 -0.39651433 -0.3093278
000030 95 5f ad 3e 5f 06 12 bc e7 18 0b bd c1 d8 ec bd
       0.33861986 -0.008912652 -0.033959296 -0.1156478
000040 05 40 4b be d6 5f 8a 3e 21 c3 33 3f 14 0e 42 bf
       -0.1984864 0.27026242 0.7021962 -0.7580273
000050 2d 8b d7 3e 5a 48 44 bf 7c dd 57 bf c7 7c 11 bf
       0.4209837 -0.766729 -0.84322333 -0.5683102
000060 f4 a1 9a be b6 8d ae be a3 6b 31 3f 43 a1 df be
       -0.30201685 -0.34092492 0.69304866 -0.4367772
000070 f7 a0 0d 3f 35 09 df be 61 03 68 3d 17 f6 24 be
       0.5532374 -0.43561712 0.056643847 -0.16109501
000080 93 dd 51 3e 97 ef b4 be 0e cd 5f be ee e2 88 be
       0.2049468 -0.35339043 -0.21855566 -0.26735634
000090 9c e5 00 3f 84 19 b4 be 2f cc 58 be e3 4e 87 bd
       0.50350356 -0.35175717 -0.2117164 -0.06606843
0000a0 9d 26 16 3e e9 fd 1c 3f 49 a6 2f be 47 0a 4a be
       0.14663167 0.61324936 -0.17153277 -0.19730483
0000b0 44 ba 48 be ce 82 87 be 4a 57 47 3f 0b 59 95 3e
       -0.19602305 -0.26466984 0.7786757 0.29169497
0000c0 76 d3 e2 3e 0b 0f 78 3f 7e 68 40 be d4 29 29 3f
       0.44301957 0.96897954 -0.1878986 0.6607945
0000d0 35 cf 53 bd 4e 38 eb 3e 2d f2 96 3e a8 38 f8 3e
       -0.05171128 0.45941395 0.2948164 0.48480725
0000e0 62 db 75 bd 0b e7 36 bd 41 80 df be 3b b6 92 be
       -0.060023673 -0.044653933 -0.43652537 -0.28654656
0000f0 da 56 4e 3f 13 cb c5 be 99 fb 86 3d 22 2b d1 be
       0.80601275 -0.38631496 0.06590957 -0.4085322
000100 f9 34 04 be 5e cb 14 3f 4a 56 ba 3e b4 ff 43 3f
       -0.12910832 0.58122814 0.36393958 0.76562047
000110 87 d0 90 3e 76 56 e4 3e 9f 51 21 be 9d c0 92 be
       0.28284094 0.44597214 -0.15753792 -0.28662577
000120 73 56 07 be c6 c0 86 be a1 3f 80 3e e1 b5 81 be
       -0.13216572 -0.2631895 0.25048545 -0.25334075
000130 5d b6 92 be 53 0e a7 3e 77 1c 34 3f 0c 10 0a be
       -0.28654757 0.32628116 0.70355934 -0.13482684
000140 b7 6d ad bd d2 55 e6 3e 4a d3 bc 3c 59 89 bb 3e
       -0.08468192 0.4498735 0.02304997 0.36628225
000150 27 7c 24 be 51 ab 1d 3f 72 a8 ac 3d cd fa 3e bd
       -0.16062985 0.61589533 0.08430566 -0.0466259
000160 a2 cc 0d 3f 68 a1 17 3f a7 6d b3 3d 15 b1 00 be
       0.5539037 0.5923066 0.08761149 -0.12567551
000170 3d f3 0e 3f f8 a6 10 3f ac 77 dc bd 76 f6 62 be
       0.558399 0.56504774 -0.10765013 -0.2216433
000180 c3 f0 06 3f 76 b3 da 3e 3b 6d f1 3e 4c 99 ae 3e
       0.52711123 0.42715043 0.4715365 0.3410133
000190 ab df 10 3f 18 51 2d 3e 81 d1 ba bd 8a d5 31 be
       0.5659129 0.16925466 -0.09121991 -0.17366615
0001a0 40 d2 06 3f 38 9f 38 be e6 64 49 3f e3 28 96 bc
       0.52664566 -0.18029487 0.78669584 -0.018330043
0001b0 cc 7b b2 be 70 e6 b7 3e 84 56 e5 be ae 5a e6 3e
       -0.34860075 0.35917997 -0.4479257 0.44991058
0001c0 c5 34 9e 3e 89 13 53 3f 7e c6 53 be d6 e5 b7 be
       0.30899635 0.82451683 -0.20681188 -0.35917538
0001d0 f4 da 03 bf 03 fc 08 be 1c 18 fa 3e d3 e5 1e be
       -0.5150597 -0.13377385 0.4884652 -0.15517358
0001e0 8c 83 b6 3c f0 35 a2 be 14 7b a7 3e 74 d7 2a bd
       0.022279523 -0.31681776 0.3271109 -0.04170938
0001f0 7f e9 1e 3f 48 5a 41 3f e1 e9 7d 3e 45 02 29 3f
       0.62075037 0.75528383 0.24796249 0.6601909
000200 1b cf 05 be c4 cb 2f 3f e0 a2 0f 3f 8f a2 c3 3e
       -0.13067286 0.68670297 0.561079 0.3820996
000210 6b 4e 04 be 15 f5 0b 3f 57 c1 6d 3e 50 43 05 3f
       -0.12920539 0.5467084 0.23218285 0.52055836
000220 77 bf b3 bd 2c 30 d7 3e eb bd 25 3f 0a 8d 9b be
       -0.087767534 0.4202894 0.64742917 -0.30381042
000230 88 7e 67 bb 5e 17 9d be c3 57 98 3e f7 f8 56 be
       -0.0035323221 -0.3068189 0.29754457 -0.2099341
000240 40 97 72 bd f8 02 a6 be 44 03 76 be 0f 8c 3d be
       -0.059226274 -0.3242414 -0.24024683 -0.1851046
000250 f1 c7 10 3f 44 1a a5 3e 91 17 25 be 88 e4 b9 3e
       0.56555086 0.32246602 -0.16122271 0.36307168
000260 56 be af be f8 1f d0 3e b6 21 5d bf 7f 47 2d be
       -0.34324902 0.4064939 -0.86379564 -0.16921805
000270 d5 4e af 3e b9 d7 d6 3e bf ad a2 bd 61 96 97 3e
       0.34239832 0.41961458 -0.07943296 0.29606918
000280 25 ff fc bd 0d a1 c1 3d 1f 6a c1 3e 6c 3f 16 3f
       -0.123533525 0.09454546 0.37776276 0.58690524
000290 2d 94 04 3e ac 36 ce 3c 45 5f 34 bc f0 0e 78 be
       0.1294715 0.025172554 -0.011009042 -0.24224448
0002a0 a2 be 45 3f 0b 89 ee 3d 7f 27 13 3f 2e d1 86 3e
       0.7724401 0.116472326 0.5748214 0.26331466
0002b0 f3 e7 16 3b dd 66 b3 be 36 92 1e 3e f1 a9 3a bd
       0.0023026436 -0.35039416 0.15485463 -0.045572225
0002c0 2e 1f ce 3e d6 9b 6c be 9f 82 eb bd 16 df 87 be
       0.40258163 -0.23106322 -0.11499523 -0.2653739
0002d0 dd 8b 56 bc 74 d1 a8 b8 72 45 d3 3e 98 91 91 bd
       -0.013094869 -8.049878e-05 0.4126392 -0.07107848
0002e0 b6 75 06 be 07 fa 7e be ba 5d ff 3e 78 bf 89 3e
       -0.1313084 -0.24900065 0.49876195 0.26903892
0002f0 c8 e8 87 bd c9 8b 16 3f 75 c5 1b 3f 66 0f e2 3e
       -0.066361964 0.58807045 0.6084817 0.44152373
000300 50 3d a2 be e3 56 08 be 28 0f 59 3e 54 42 e7 3d
       -0.31687403 -0.13314395 0.21197188 0.11291948
000310 36 9b 12 3f 97 be 28 be e0 38 32 3f e0 94 1d 3f
       0.57268083 -0.16478954 0.69618034 0.6155529
000320 f4 7f 16 3f 79 11 0d 3f cb 38 97 be c3 9c c4 bd
       0.5878899 0.55104786 -0.29535517 -0.096002124
000330 1f 3a d4 bd 17 65 91 3e c4 b7 8c 3c 2e 29 c6 3e
       -0.10362648 0.28397438 0.01717747 0.38703293
000340 0f 2d 11 3f 94 c6 a2 3e 63 4a 89 3e 69 4f 1b be
       0.5670938 0.31792128 0.26814565 -0.15167011
000350 ec d4 82 be ec 13 0a 3d 63 4b 34 3f bb 3d de 3e
       -0.25553071 0.033710405 0.7042753 0.43406472
000360 cc 21 16 be f0 e6 a5 3d 1f d2 e5 3e 7d 3d 11 3f
       -0.1466133 0.081006885 0.44886872 0.5673445
000370 84 2a 06 3f d3 73 fd be 20 e4 95 3e 3b 52 19 3f
       0.52408624 -0.4950243 0.29275608 0.598911
000380 c4 07 ed 3e fb ca de 3e 73 b8 19 3f 14 d7 1d 3f
       0.46294987 0.43514237 0.6004707 0.6165631
000390 21 16 e5 3e 70 8f 39 3f eb be 8d 3d 2a cd 0b 3f
       0.44743446 0.72484493 0.0692118 0.5460993
0003a0 c6 f1 0f 3f 9a 16 fc be 8c f1 83 be 2f 85 19 3f
       0.5622829 -0.49235994 -0.25770223 0.5996885
0003b0 d5 ee 22 be 05 40 44 3f 9b 06 15 3f 85 42 3d 3f
       -0.1591142 0.76660186 0.58213204 0.73929626
0003c0 7e 45 21 3f 06 a1 f1 3e e9 54 bd be 7f d0 81 3e
       0.6299666 0.47193164 -0.36978844 0.25354382
0003d0 39 6a b1 be 44 07 45 bc f8 41 a6 be b5 70 11 3f
       -0.34651354 -0.012025658 -0.32472205 0.568126
0003e0 27 12 9f bd 27 25 2f 3f da 37 89 3e 7f f0 0d 3f
       -0.07767134 0.68416065 0.26800424 0.5544509
0003f0 ba a9 8e be 93 a1 0f 3f aa 4d 95 3e 3e 26 5f 3e
       -0.27863866 0.5610592 0.29160815 0.21791932

l1.bias f4 [8]
000000 71 d8 57 3f 0e b1 92 3e 7e 78 62 3f 77 a7 03 3f
       0.8431464 0.28650707 0.88465106 0.51427406
000010 ed cd fd 3e ea 30 92 3e 74 8b 1d 3f 57 c2 6d 3f
       0.4957117 0.28552943 0.61540914 0.92874664

l2.weight f4 [8, 8]
000000 bc 76 4a be 3b 5d 92 be 20 9a 43 3e b9 5e 18 be
       -0.19771856 -0.28586754 0.19101763 -0.14879884
000010 74 74 b3 3d 27 56 8a be d0 0a 3a be bf e3 d8 3c
       0.08762446 -0.27018854 -0.18168187 0.026475785
000020 cc 04 9f bf e2 2e 1e 3f a5 cf 9c 3e 29 39 3b 3f
       -1.2423339 0.6179029 0.3062717 0.73134094
000030 ac df 9c 3f ae ba 65 3e 6b fc 37 3f d5 0e e1 3e
       1.2255759 0.22434494 0.71869534 0.43956628
000040 38 ee 87 3f b5 88 03 3f 4c b8 2b bf da b9 a8 3f
       1.0619574 0.51380473 -0.6707809 1.3181717
000050 22 72 2a bf d6 4a 24 3f 9c f7 ae 3f 94 14 30 bf
       -0.665804 0.6417669 1.3669314 -0.687814
000060 b4 f8 07 bf 72 ef 99 3f c5 ed 52 be 40 c2 4f 3f
       -0.53113866 1.2026198 -0.20598514 0.81155777
000070 05 23 b5 3f e3 ad 9b 3e f1 7a 2a 3f 0a 87 24 3e
       1.4151312 0.30406103 0.66593844 0.16067138
000080 fd 90 d4 3f 6e 79 9c be e4 59 23 3f 7a 64 d3 3d
       1.6606747 -0.30561393 0.6380904 0.10321899
000090 24 8b 07 bf b5 9e 25 3f 54 df a0 3e 87 2e 82 3f
       -0.52946687 0.6469529 0.31420386 1.0170449
0000a0 e8 65 5a be ae 7f 8a be f5 f9 e4 bd 33 69 89 3e
       -0.21327937 -0.27050537 -0.11180488 0.26838073
0000b0 84 51 a4 be e7 f6 d4 3d 34 63 44 be 10 86 df bd
       -0.3209344 0.103986554 -0.19178468 -0.10914242
0000c0 4c 55 44 3e 05 de a5 be c2 f4 c2 3f a8 fd 83 3e
       0.19173163 -0.3239595 1.5230944 0.25779462
0000d0 e7 1a ea bd 31 ad 1d be aa 8f 1c bf 2a 3f c3 3f
       -0.114309125 -0.15398099 -0.61156714 1.5253651
0000e0 b0 ac 66 be 84 62 9d bf f9 0f 05 3f ce 01 c8 be
       -0.22526813 -1.229569 0.519775 -0.39063877
0000f0 90 71 93 3f 5f 69 85 bf 75 f9 6a 3f f4 32 2a 3f
       1.1519032 -1.0422782 0.9178689 0.66484

l2.bias f4 [8]
000000 4c 38 ca be 40 b3 c0 bd 6e 3e c3 3e f4 00 be 3e
       -0.39496076 -0.09409189 0.38133568 0.37110102
000010 70 e5 4a 3f 18 0e 27 be cc 45 e0 3e e6 8e 2f 3f
       0.79256344 -0.1631397 0.4380325 0.6857742

l3.weight f4 [7, 8]
000000 c7 97 12 3d 0e b8 a1 3e 48 df 96 bf 83 df 2c 3f
       0.035789277 0.31585735 -1.178689 0.6752855
000010 e5 71 81 bf 65 4e 88 bd 0d 51 6d bf c3 6e 49 bf
       -1.0112883 -0.066555776 -0.927018 -0.78684634
000020 b3 0b 81 be 47 68 82 3e 26 e9 29 bf f4 8e 9c 39
       -0.25204238 0.25470182 -0.6637138 0.00029861147
000030 ca 2c 61 be 31 e4 4b be b8 ca 10 3f dc 78 c7 bf
       -0.21989742 -0.19911267 0.56559324 -1.5583758
000040 36 10 7b 3d aa a7 fe bf be d6 c9 bf 44 8c ae bf
       0.061294757 -1.9894917 -1.5768659 -1.3636556
000050 03 5c f3 3e 78 62 0e bd 84 dc 45 3f bf f2 bb 3e
       0.47531137 -0.034761876 0.77289605 0.36708638
000060 32 96 6f be 90 e6 0e be fb 79 8f bf 20 9a 8b be
       -0.23397139 -0.1395514 -1.12091 -0.27266026
000070 30 58 74 be 34 6d 0b 3e 17 56 65 3e b3 2e 68 3f
       -0.23861766 0.13615876 0.22396122 0.9069626
000080 c9 26 0e 3c 4e 4e 84 bf 40 3c 00 be 92 6c 87 bf
       0.008676239 -1.0336397 -0.12522984 -1.0580008
000090 0c 34 52 3f c7 6a 97 bd 69 aa 4b bd 8d 93 c3 bf
       0.8211067 -0.07393413 -0.049723063 -1.5279404
0000a0 30 fd 8e be 6e f9 65 bd 76 62 ce 3e 4c 56 3b 3e
       -0.27927542 -0.056146078 0.40309495 0.18294638
0000b0 d1 ba 4a bf 23 6e ef 3b 29 62 b2 bf fb 01 29 3f
       -0.7919131 0.0073068305 -1.3936206 0.66018647
0000c0 33 0e ec bc b3 57 76 bf 0e 94 5b 3f 26 ed 75 be
       -0.028815364 -0.9622757 0.8577279 -0.24016246
0000d0 ed f3 cf 3e 86 a0 7f bd 15 9a cb bf 4d 75 84 bf
       0.40615788 -0.062408946 -1.5906397 -1.0348297

l3.bias f4 [7]
000000 10 8b 9e 3e e6 50 ef be 7b a5 81 3e 53 fa 43 be
       0.3096547 -0.46741408 0.25321564 -0.1913846
000010 f9 82 b9 3e b2 aa 81 3e c0 dd 9b 3e
       0.36232737 0.25325543 0.3044262
